…
Some weights of the model checkpoint at /home/huyiwen/pretrained/bert-base-uncased-SST-2 were not used when initializing BertModel: ['classifier.weight', 'classifier.bias']
- This IS expected if you are initializing BertModel from the checkpoint of a model trained on another task or with another architecture (e.g. initializing a BertForSequenceClassification model from a BertForPreTraining model).
- This IS NOT expected if you are initializing BertModel from the checkpoint of a model that you expect to be exactly identical (initializing a BertForSequenceClassification model from a BertForSequenceClassification model).
BERT_Model(
  (bert): BertModel(
    (embeddings): BertEmbeddings(
      (word_embeddings): Embedding(30522, 768, padding_idx=0)
      (position_embeddings): Embedding(512, 768)
      (token_type_embeddings): Embedding(2, 768)
      (LayerNorm): LayerNorm((768,), eps=1e-12, elementwise_affine=True)
      (dropout): Dropout(p=0.1, inplace=False)
    )
    (encoder): BertEncoder(
      (layer): ModuleList(
        (0-11): 12 x BertLayer(
          (attention): BertAttention(
            (self): BertSelfAttention(
              (query): Linear(in_features=768, out_features=768, bias=True)
              (key): Linear(in_features=768, out_features=768, bias=True)
              (value): Linear(in_features=768, out_features=768, bias=True)
              (dropout): Dropout(p=0.1, inplace=False)
            )
            (output): BertSelfOutput(
              (dense): Linear(in_features=768, out_features=768, bias=True)
              (LayerNorm): LayerNorm((768,), eps=1e-12, elementwise_affine=True)
              (dropout): Dropout(p=0.1, inplace=False)
            )
          )
          (intermediate): BertIntermediate(
            (dense): Linear(in_features=768, out_features=3072, bias=True)
            (intermediate_act_fn): GELUActivation()
          )
          (output): BertOutput(
            (dense): Linear(in_features=3072, out_features=768, bias=True)
            (LayerNorm): LayerNorm((768,), eps=1e-12, elementwise_affine=True)
            (dropout): Dropout(p=0.1, inplace=False)
          )
        )
      )
    )
    (pooler): BertPooler(
      (dense): Linear(in_features=768, out_features=768, bias=True)
      (activation): Tanh()
    )
  )
  (fc): Linear(in_features=768, out_features=192, bias=True)
  (fc1): Linear(in_features=192, out_features=2, bias=True)
)
Epoch [1/1]
Iter:      0,  Train Loss:  0.73,  Train Acc: 51.56%,  Val Loss:  0.37,  Val Acc: 93.08%,  Time: 0:00:23 *
Iter:     10,  Train Loss: 0.0015,  Train Acc: 100.00%,  Val Loss:  0.31,  Val Acc: 92.59%,  Time: 0:00:40 *
Iter:     20,  Train Loss:  0.11,  Train Acc: 98.44%,  Val Loss:  0.35,  Val Acc: 92.53%,  Time: 0:00:51
Iter:     30,  Train Loss:  0.09,  Train Acc: 98.44%,  Val Loss:  0.33,  Val Acc: 92.64%,  Time: 0:00:58
…
