…
Some weights of the model checkpoint at /home/huyiwen/pretrained/bert-base-uncased-SST-2 were not used when initializing BertModel: ['classifier.weight', 'classifier.bias']
- This IS expected if you are initializing BertModel from the checkpoint of a model trained on another task or with another architecture (e.g. initializing a BertForSequenceClassification model from a BertForPreTraining model).
- This IS NOT expected if you are initializing BertModel from the checkpoint of a model that you expect to be exactly identical (initializing a BertForSequenceClassification model from a BertForSequenceClassification model).
BERT_Model(
  (bert): BertModel(
    (embeddings): BertEmbeddings(
      (word_embeddings): Embedding(30522, 768, padding_idx=0)
      (position_embeddings): Embedding(512, 768)
      (token_type_embeddings): Embedding(2, 768)
      (LayerNorm): LayerNorm((768,), eps=1e-12, elementwise_affine=True)
      (dropout): Dropout(p=0.1, inplace=False)
    )
    (encoder): BertEncoder(
      (layer): ModuleList(
        (0-11): 12 x BertLayer(
          (attention): BertAttention(
            (self): BertSelfAttention(
              (query): Linear(in_features=768, out_features=768, bias=True)
              (key): Linear(in_features=768, out_features=768, bias=True)
              (value): Linear(in_features=768, out_features=768, bias=True)
              (dropout): Dropout(p=0.1, inplace=False)
            )
            (output): BertSelfOutput(
              (dense): Linear(in_features=768, out_features=768, bias=True)
              (LayerNorm): LayerNorm((768,), eps=1e-12, elementwise_affine=True)
              (dropout): Dropout(p=0.1, inplace=False)
            )
          )
          (intermediate): BertIntermediate(
            (dense): Linear(in_features=768, out_features=3072, bias=True)
            (intermediate_act_fn): GELUActivation()
          )
          (output): BertOutput(
            (dense): Linear(in_features=3072, out_features=768, bias=True)
            (LayerNorm): LayerNorm((768,), eps=1e-12, elementwise_affine=True)
            (dropout): Dropout(p=0.1, inplace=False)
          )
        )
      )
    )
    (pooler): BertPooler(
      (dense): Linear(in_features=768, out_features=768, bias=True)
      (activation): Tanh()
    )
  )
  (fc): Linear(in_features=768, out_features=192, bias=True)
  (fc1): Linear(in_features=192, out_features=2, bias=True)
)
cuda
biLSTM(
  (Embedding): EmbeddingMPO(
    (tensor_set): ParameterList(
        (0): Parameter containing: [torch.float32 of size 1x19x10x190 (cuda:0)]
        (1): Parameter containing: [torch.float32 of size 190x4x3x2280 (cuda:0)]
        (2): Parameter containing: [torch.float32 of size 2280x2x1x1400 (cuda:0)]
        (3): Parameter containing: [torch.float32 of size 1400x7x1x200 (cuda:0)]
        (4): Parameter containing: [torch.float32 of size 200x20x10x1 (cuda:0)]
    )
  )
  (lstm): LSTM(300, 300, batch_first=True, bidirectional=True)
  (fc1): Linear(in_features=600, out_features=192, bias=True)
  (fc2): Linear(in_features=192, out_features=2, bias=True)
)
Traceback (most recent call last):
  File "/home/huyiwen/NLP/bilstm/distill.py", line 71, in <module>
    student_train(T_model, S_model, cfg, train_loader, test_loader)
  File "/home/huyiwen/NLP/bilstm/student.py", line 135, in student_train
    s_outputs = S_model(texts)
  File "/home/huyiwen/miniconda3/envs/kd2/lib/python3.10/site-packages/torch/nn/modules/module.py", line 1518, in _wrapped_call_impl
…
